…
2MB 13.9MB/s 1.8s<0.2s[KDownloading https://ultralytics.com/assets/Arial.Unicode.ttf to '/Users/merluee/Library/Application Support/Ultralytics/Arial.Unicode.ttf': 97% ━━━━━━━━━━━╸ 21.5/22.2MB 11.2MB/s 1.9s<0.1s[KDownloading https://ultralytics.com/assets/Arial.Unicode.ttf to '/Users/merluee/Library/Application Support/Ultralytics/Arial.Unicode.ttf': 100% ━━━━━━━━━━━━ 22.2MB 11.1MB/s 2.0s
Overriding model.yaml nc=80 with nc=43

                   from  n    params  module                                       arguments                     
  0                  -1  1       464  ultralytics.nn.modules.conv.Conv             [3, 16, 3, 2]                 
  1                  -1  1      4672  ultralytics.nn.modules.conv.Conv             [16, 32, 3, 2]                
  2                  -1  1      7360  ultralytics.nn.modules.block.C2f             [32, 32, 1, True]             
  3                  -1  1     18560  ultralytics.nn.modules.conv.Conv             [32, 64, 3, 2]                
  4                  -1  2     49664  ultralytics.nn.modules.block.C2f             [64, 64, 2, True]             
  5                  -1  1     73984  ultralytics.nn.modules.conv.Conv             [64, 128, 3, 2]               
  6                  -1  2    197632  ultralytics.nn.modules.block.C2f             [128, 128, 2, True]           
  7                  -1  1    295424  ultralytics.nn.modules.conv.Conv             [128, 256, 3, 2]              
  8                  -1  1    460288  ultralytics.nn.modules.block.C2f             [256, 256, 1, True]           
  9                  -1  1    164608  ultralytics.nn.modules.block.SPPF            [256, 256, 5]                 
 10                  -1  1         0  torch.nn.modules.upsampling.Upsample         [None, 2, 'nearest']          
 11             [-1, 6]  1         0  ultralytics.nn.modules.conv.Concat           [1]                           
 12                  -1  1    148224  ultralytics.nn.modules.block.C2f             [384, 128, 1]                 
 13                  -1  1         0  torch.nn.modules.upsampling.Upsample         [None, 2, 'nearest']          
 14             [-1, 4]  1         0  ultralytics.nn.modules.conv.Concat           [1]                           
 15                  -1  1     37248  ultralytics.nn.modules.block.C2f             [192, 64, 1]                  
 16                  -1  1     36992  ultralytics.nn.modules.conv.Conv             [64, 64, 3, 2]                
 17            [-1, 12]  1         0  ultralytics.nn.modules.conv.Concat           [1]                           
 18                  -1  1    123648  ultralytics.nn.modules.block.C2f             [192, 128, 1]                 
 19                  -1  1    147712  ultralytics.nn.modules.conv.Conv             [128, 128, 3, 2]              
 20             [-1, 9]  1         0  ultralytics.nn.modules.conv.Concat           [1]                           
 21                  -1  1    493056  ultralytics.nn.modules.block.C2f             [384, 256, 1]                 
 22        [15, 18, 21]  1    759697  ultralytics.nn.modules.head.Detect           [43, 16, None, [64, 128, 256]]
Model summary: 130 layers, 3,019,233 parameters, 3,019,217 gradients, 8.2 GFLOPs

Transferred 319/355 items from pretrained weights
Freezing layer 'model.22.dfl.conv.weight'
[34m[1mtrain: [0mFast image access ✅ (ping: 0.0±0.0 ms, read: 4177.3±1092.3 MB/s, size: 316.4 KB)
[K[34m[1mtrain: [0mScanning /Users/merluee/Verkehrschild Erkennung/data/labels/train... 298 images, 21 backgrounds, 0 corrupt: 62% ━━━━━━━───── 298/480 886.6it/s 0.1s<0.2s[K[34m[1mtrain: [0mScanning /Users/merluee/Verkehrschild Erkennung/data/labels/train... 480 images, 72 backgrounds, 0 corrupt: 100% ━━━━━━━━━━━━ 480/480 3.2Kit/s 0.1s
…
